trained_model_N128_K64_bad.pt (torch, 176863 bytes, 7 tensors)

fc1.weight f4 [128, 256]
0.003909288 0.034480516 -0.043251112 -0.04632423 0.0015963266 -0.0045791627 0.0036500134 0.017413344
-0.016254095 0.018386966 -0.024944374 0.020855168 -0.05940163 -0.018052308 -0.030494457 0.0010526201
0.022587808 -0.0059784316 -0.0121715255 -0.02348026 0.027446246 0.049820162 -0.03893703 0.040464506
-0.017751206 -0.007784277 0.03353754 -0.06564325 -0.019353071 -0.015222116 -9.88066e-07 -0.015506504
-0.014019007 -0.04329569 -0.051179 -0.06083939 -0.00915403 0.047035016 0.0110943215 0.01745184
-0.011486864 -0.027578829 -0.0075028506 -0.011214865 -0.025033975 -0.09184437 -0.009742668 -0.034238324
-0.0054541095 0.012973853 0.038540747 0.020265458 -0.00052071904 -0.028981043 -0.012843618 -0.105561875
0.017513912 -0.06710076 -0.08840234 -0.08205372 -0.051203128 -0.045634773 -0.08135446 -0.039535258
0.029836867 -0.017236356 0.017448781 -0.0045722867 0.025240581 0.038428932 -0.057615094 -0.046322934
0.0015927325 0.048927948 0.04229139 0.005287214 0.020234892 -0.10035023 -0.043745693 -0.08188014
-0.06569601 0.028454619 0.042100847 -0.0854779 0.02092766 -0.048153576 -0.052289397 -0.050789133
-0.04000149 -0.086635925 -0.03538055 -0.035353474 -0.018781628 -0.053762987 -0.0632835 -0.06928003
0.006188974 -0.019781228 -0.093852825 -0.07554041 -0.0062050126 -0.012578743 -0.065985866 -0.0567193
-0.08068659 0.004770018 -0.061262406 -0.058196086 -0.040944573 -0.029730428 -0.06570891 0.019203082
-0.05441752 -0.025267202 0.0038235139 -0.07563917 -0.057646286 -0.043212455 -0.028024716 -0.0011585695
-0.017158756 -0.044224378 -0.068623886 -0.006134381 -0.09481153 -0.089861505 -0.059503935 -0.078589
-0.021864586 -0.051226355 -0.013294697 0.013359778 -0.04071661 -0.00320746 0.044740677 -0.0064250156
0.0017370135 -0.0053918064 0.012648836 0.039739966 0.059202887 0.039690994 0.059338346 -0.0045201033
-0.056145094 -0.029629827 0.042556576 -0.00040515512 -0.031065397 -0.047894485 -0.058490753 -0.052750513
-0.012677297 0.034275375 0.033790067 -0.060276993 0.038986377 -0.04890684 -0.013213143 -0.02534204
-0.012038454 -0.012271419 -0.056084372 -0.05396487 -0.009779967 0.00080826133 -0.02839218 0.0235437
-0.05625365 -0.0042179525 0.054963715 -0.02549325 0.056437694 0.02263461 -0.05640381 0.039543584
-0.0072121546 -0.027900428 0.04997833 -0.05050595 0.006706558 -0.013085544 0.04463204 0.017446533
0.030031584 0.022072434 -0.015029669 -0.013144091 -0.05150509 0.033865258 0.04962363 0.042764053
-0.044086143 0.0027874932 -0.044058383 -0.03440526 -0.036419094 0.021359064 -0.037244573 -0.0013635755
0.0026292577 0.04028894 -0.047245003 -0.042907014 -0.036291346 0.043745838 -0.022466563 0.052718043
0.022600472 0.007914126 -0.0004652515 -0.012355097 0.007841647 -0.014271542 -0.00043915212 0.007974565
-0.04888782 -0.032758214 0.050468296 -0.050721668 -0.004487887 0.06182742 0.022577316 0.001769565
-0.05416312 0.030961119 -0.044517547 -0.017741516 -0.02096977 -0.009255461 0.0006836429 0.05155047
0.007802427 0.0559808 0.03823203 -0.039513372 0.028031506 -0.044181004 -0.026489072 0.018382668
0.020637006 0.046889253 -0.020119742 0.00010005385 0.032176472 -0.06044326 0.04518629 -0.05168265
0.0008614063 -0.010626048 -0.03291706 0.00826069 0.05168242 -0.018269971 -0.03710588 -0.023114927
00000000: 7c19 803b 713b 0d3d 1428 31bd 7abe 3dbd
00000010: d53b d13a cd0c 96bb 1035 6f3b 6ea6 8e3c
00000020: 4f27 85bc 43a0 963c 2558 ccbc 75d8 aa3c
00000030: 204f 73bd 6fe2 93bc 83cf f9bc 12f8 893a
00000040: 110a b93c b8e6 c3bb 146b 47bc ad59 c0bc
00000050: f3d6 e03c 3a10 4c3d 6f7c 1fbd 1cbe 253d
00000060: fa6a 91bc 4013 ffbb a95e 093d f86f 86bd
00000070: 558a 9ebc 2f66 79bc b09d 84b5 fe0e 7ebc
00000080: faaf 65bc d256 31bd 12a1 51bd b932 79bd
00000090: c9fa 15bc caa7 403d f5c4 353c 29f7 8e3c
000000a0: 6633 3cbc ffec e1bc 79da f5bb 8ebe 37bc
000000b0: 0d14 cdbc e718 bcbd b69f 1fbc 7c3d 0cbd
000000c0: 63b8 b2bb 4990 543c e7dc 1d3d bf03 a63c
000000d0: dd80 08ba a769 edbc 0a6e 52bc d330 d8bd
000000e0: 5679 8f3c 206c 89bd 490c b5bd c80b a8bd
000000f0: 5fba 51bd 87eb 3abd 2b9d a6bd b9ef 21bd
00000100: 726c f43c 4233 8dbc bff0 8e3c 1fd3 95bb
00000110: 56c5 ce3c a867 1d3d cefd 6bbd 1ebd 3dbd
00000120: 3cc3 d03a ac68 483d bd39 2d3d 5e40 ad3b
00000130: a5c3 a53c 6c84 cdbd af2e 33bd c6b0 a7bd
00000140: a18b 86bd a919 e93c f071 2c3d 0a0f afbd
00000150: 7c70 ab3c af3c 45bd 682d 56bd 4408 50bd
00000160: 9ad8 23bd 2d6e b1bd 32eb 10bd cece 10bd
00000170: eedb 99bc 9436 5cbd c89a 81bd b0e2 8dbd
00000180: e0cc ca3b 3e0c a2bc e935 c0bd eeb4 9abd
00000190: 6b53 cbbb 1217 4ebc 9923 87bd 7f52 68bd
000001a0: 033f a5bd d04d 9c3b 4aee 7abd 055f 6ebd
000001b0: 7fb5 27bd 3a8d f3bc 6592 86bd c84f 9d3c
000001c0: e8e4 5ebd 2afd cebc eb93 7a3b b6e8 9abd
000001d0: 831e 6cbd 8bff 30bd 1794 e5bc 24db 97ba
000001e0: 8590 8cbc 9f24 35bd ae8a 8cbd eb02 c9bb
000001f0: 8c2c c2bd 4f09 b8bd 66ba 73bd 45f3 a0bd
00000200: 5c1d b3bc bad2 51bd 00d2 59bc f8e2 5a3c
00000210: 76c6 26bd 4034 52bb 0042 373d f088 d2bb
00000220: 80ac e33a c0ad b0bb 103d 4f3c 60c6 223d
00000230: ba7e 723d 0693 223d c40c 733d 601d 94bb
00000240: 66f8 65bd 40ba f2bc ce4f 2e3d 006b d4b9
00000250: dc7c febc 022d 44bd 0094 6fbd ec10 58bd
00000260: 70b4 4fbc 5664 0c3d 7467 0a3d 02e5 76bd
00000270: 2eb0 1f3d 8a52 48bd f07b 58bc 1c9a cfbc
00000280: f03c 45bc 100e 49bc bab8 65bd 440a 5dbd
00000290: 283c 20bc 80e1 533a b896 e8bc b8de c03c
000002a0: 3a6a 66bd c036 8abb a221 613d 38d7 d0bc
000002b0: 362b 673d 386c b93c ae07 67bd 74f8 213d
000002c0: f053 ecbb 708f e4bc 14b6 4c3d 54df 4ebd
000002d0: b0c2 db3b c064 56bc 16d0 363d 08ec 8e3c
000002e0: cc04 f63c 40d1 b43c 003f 76bc 505a 57bc
000002f0: 00f7 52bd 4cb6 0a3d 2642 4b3d 5c29 2f3d
00000300: ac93 34bd 60ae 363b 9076 34bd 88ec 0cbd
00000310: 302c 15bd 34f9 ae3c c48d 18bd 00ba b2ba
00000320: a04f 2c3b 0406 253d fa83 41bd 44bf 2fbd
00000330: 3ca6 14bd d62e 333d cc0b b8bc e0ee 573d
00000340: a024 b93c 40aa 013c 00ed f3b9 086d 4abc
00000350: 407a 003c 30d3 69bc 003e e6b9 c0a7 023c
00000360: 983e 48bd 7a2d 06bd d8b7 4e3d 86c1 4fbd
00000370: 200f 93bb c03e 7d3d 10f4 b83c c0f0 e73a
00000380: 26da 5dbd 2ca2 fd3c 0858 36bd a856 91bc
00000390: ccc8 abbc 38a4 17bc 8036 333a 9626 533d
000003a0: 80ab ff3b 204c 653d 3099 1c3d c6d8 21bd
000003b0: 54a2 e53c 24f7 34bd 9cff d8bc 4097 963c
000003c0: f00e a93c f20e 403d 28d2 a4bc 00d4 d138
000003d0: 7acb 033d 5a93 77bd 4215 393d 30b1 53bd
000003e0: 00d0 613a e018 2ebc 0ad4 06bd d857 073c
000003f0: f2b0 533d e8aa 95bc 56fc 17bd 845b bdbc

fc1.bias f4 [128]
0.03926984 -0.039062936 0.09169092 0.12263003 0.07962403 0.10397162 0.025575053 0.03553674
-0.009335861 0.00743732 -0.02948286 0.002165765 0.02610885 -0.040285077 0.042875096 0.014384759
-0.032098986 -0.07363535 -0.0608635 -0.040765077 0.036806487 -0.04075621 0.03259551 -0.03491035
0.02482743 -0.12740377 -0.05118616 0.002086252 0.03942175 -0.014900634 0.07063272 -0.017148217
0.0742877 0.06580704 -0.062237404 0.13659206 -0.06071565 -0.09271533 -0.01157249 -0.053771883
-0.028263465 0.025046885 -0.012675942 0.11961047 0.0098012155 0.016300667 0.010819048 -0.040586557
-0.016611807 0.0433507 0.00813775 -0.12993497 -0.07092653 -0.0042951 0.027511343 -0.029154116
-0.10183818 -0.02448923 0.014974166 -0.03053889 0.022140741 -0.10871491 0.029769653 0.029078085
0.0027826412 0.05678993 -0.0013411217 -0.03714971 0.050955024 -0.064730085 -0.052187372 0.0236621
0.010209907 0.033910252 -0.062273845 0.04499705 0.09730661 -0.03845449 0.027183482 -0.05649424
0.007084755 0.034668796 -0.024093557 0.032148585 -0.08195505 -0.004694772 0.048565093 0.0145856235
0.026375966 0.024079213 -0.032360874 0.0016150972 0.005753912 0.024299394 -0.036949955 -0.03127942
0.061727177 -0.009491327 -0.034766037 0.028597927 -0.034905814 0.007707719 0.09049106 0.06955688
-0.009668325 -0.04127254 -0.01041921 0.0020710826 0.062399395 0.05105717 -0.023443203 -0.015918685
-0.022654666 -0.02962141 0.018549984 0.025979396 -0.0017557585 -0.012669895 0.039108124 -0.0418711
0.03750601 -0.0773324 -0.05052295 0.0039063804 0.019408533 -0.09343588 -0.0015843605 -0.015504222
00000000: 69d9 203d 7500 20bd 73c8 bb3d 7425 fb3d
00000010: ec11 a33d 13ef d43d c682 d13c f98e 113d
00000020: 70f5 18bc c3b4 f33b 0a86 f1bc 82ef 0d3b
00000030: 3ae2 d53c f701 25bd cc9d 2f3d 0dae 6b3c
00000040: 3a7a 03bd 21ce 96bd 014c 79bd 48f9 26bd
00000050: 66c2 163d fcef 26bd df82 053d 28fe 0ebd
00000060: e562 cb3c 2276 02be 94a8 51bd 80b9 083b
00000070: b378 213d ca21 74bc e3a7 903d 6b7a 8cbc
00000080: 2624 983d d7c5 863d a6ec 7ebd cade 0b3e
00000090: f9b0 78bd 89e1 bdbd 8b9a 3dbc e83f 5cbd
000000a0: c888 e7bc 202f cd3c c1ae 4fbc 56f6 f43d
000000b0: 4795 203c fa88 853c 6042 313c 173e 26bd
000000c0: 7c15 88bc 8190 313d 3354 053c ac0d 05be
000000d0: ee41 91bd e9bd 8cbb 785f e13c 9dd4 eebc
000000e0: 8990 d0bd a39d c8bc 3456 753c b22c fabc
000000f0: 8060 b53c eca5 debd 7ddf f33c 2a35 ee3c
00000100: f95c 363b 8f9c 683d 94c8 afba 4b2a 18bd
00000110: 37b6 503d 3591 84bd 6dc2 55bd 05d7 c13c
00000120: 7447 273c 7ae5 0a3d dc12 7fbd d44e 383d
00000130: b048 c73d 7582 1dbd e5af de3c 8166 67bd
00000140: 3c27 e83b de00 0e3d da5f c5bc 3cae 033d
00000150: 0dd8 a7bd 9ad6 99bb 31ec 463d 8af8 6e3c
00000160: 6912 d83c c541 c53c d68c 04bd abb1 d33a
00000170: 508b bc3b 860f c73c d658 17bd d91e 00bd
00000180: a3d5 7c3d 8381 1bbc d566 0ebd 3346 ea3c
00000190: 66f9 0ebd 0991 fc3b 6053 b93d d673 8e3d
000001a0: e567 1ebc 650d 29bd 56b5 2abc 00bb 073b
000001b0: 8296 7f3d 5321 513d f60b c0bc e767 82bc
000001c0: 4796 b9bc 99a8 f2bc 23f6 973c bed2 d43c
000001d0: 7b21 e6ba 6495 4fbc d72f 203d 0881 2bbd
000001e0: e79f 193d 7360 9ebd 27f1 4ebd 1801 803b
000001f0: a5fe 9e3c 505b bfbd 51aa cfba 6c05 7ebc

fc2.weight f4 [64, 128]
0.079558134 -0.046269726 -0.09353661 -0.07156744 0.009614944 0.07021084 -0.082534045 0.0721938
0.008143579 -0.06152481 -0.034859363 0.045011777 0.012036642 -0.08428271 -0.061116494 -0.0008214157
0.0036063262 -0.030542918 -0.060945816 -0.044657145 -0.050788667 -0.049982686 -0.042864066 -0.05679205
-0.0870157 0.0068169096 0.036803693 -0.0532811 0.036095798 0.016163142 0.07103038 0.041589882
-0.046758596 -0.0026639458 0.02025351 -0.08266094 0.009806924 0.040429253 -0.017340975 -0.09369081
-0.0488615 -0.09369689 0.088891216 -0.07654589 0.05905427 0.040541016 -0.031056106 0.0144137135
0.032398127 0.07502643 -0.111899704 0.07718498 0.058689617 -0.039349906 0.007892507 0.036901385
-0.057526994 0.03130152 0.04770491 -0.051095117 -0.02027307 0.044535317 -0.01986558 -0.10897027
-0.07511428 0.05992922 0.03811688 -0.016351618 -0.055077102 0.0003404326 -0.058331538 0.109484375
-0.07753249 -0.046444796 -0.04598161 0.011793609 -0.090096645 -0.0224414 -0.016591888 -0.03086372
0.036725305 0.033778887 0.040394556 -0.04795357 0.06763617 0.0006652098 -0.012195494 0.054565627
0.048645493 -0.01904656 -0.042785298 -0.028011609 0.0015177638 0.063170634 0.0035015917 0.028453697
-0.049432762 0.048966274 -0.054920893 -0.044127766 0.038208652 -0.0065624346 0.061430942 0.046320558
-0.018946951 -0.10807269 -0.044829506 0.05163078 -0.049198166 -0.022063687 0.049074378 0.099481486
-0.054052494 0.026741056 0.00011967378 0.024443133 -0.008572032 0.037886057 -0.06282655 0.058993362
-0.045844518 -0.072799474 0.07684435 0.04700906 -0.027292307 0.042633884 -0.033912208 0.043508157
-0.056987017 -0.06741258 0.037215263 -0.06503243 -0.0013733886 -0.058643162 0.008060604 0.03711805
0.022256047 -0.025723347 0.05434515 0.0021495558 0.042985372 0.027477052 0.028646637 0.04562813
-0.11870958 0.038304076 -0.03981344 -0.015597957 -0.016922595 0.026542947 -0.025241692 -0.13187166
0.026534742 -0.011122193 -0.016717365 -0.008320516 -0.07241978 0.058414828 -0.034011815 -0.052523635
0.00035060334 -0.047659837 0.072136104 -0.03979275 0.03761588 0.0116989 -0.09816231 0.027956555
0.06386746 -0.04572297 -0.091089666 -0.0051456634 -0.01314485 -0.04419065 -0.002551831 -0.056337573
-0.10730015 0.008669861 -0.026989061 0.08335197 -0.020272672 -0.037196103 -0.086997375 -0.017366145
-0.050721053 -0.028537558 -0.087608024 -0.010449106 -0.003447833 0.05145103 -0.009004536 0.053052105
0.03139813 -0.02728829 -0.025457613 0.006215819 0.070064425 0.059581015 0.05839054 -0.021303616
0.052466642 -0.016393183 0.0010789692 0.05505641 0.02367653 -0.0026104196 -0.012741012 -0.06952261
-0.024728114 0.048394777 -0.054139618 0.021704134 0.018377054 -0.084710725 -0.021974085 -0.019845927
0.044421747 -0.092754476 -0.0018008817 0.010271572 -0.030065704 -0.05526837 -0.044499397 0.06250227
-0.047058444 -0.072154276 -0.013651091 0.019036733 0.09611986 -0.02908477 -0.08285298 0.030617585
-0.061936338 0.010558306 0.07194945 -0.022450514 -0.047417127 -0.014277663 -0.060909268 0.077414766
-0.09636019 -0.076524764 -0.0038167753 -0.034255154 0.0436693 -0.063442454 -0.07057831 -0.058771793
0.06432202 0.068853 -0.0019223952 0.056761403 -0.0955362 0.09379297 -0.09209151 -0.1374131
00000000: 60ef a23d 5385 3dbd 1f90 bfbd f391 92bd
00000010: 0088 1d3c b3ca 8f3d 9c07 a9bd 58da 933d
00000020: a56c 053c 7001 7cbd b1c8 0ebd 455e 383d
00000030: 5635 453c 6a9c acbd 4a55 7abd 4654 57ba
00000040: 1d58 6c3b 2435 fabc 52a2 79bd 69ea 36bd
00000050: c707 50bd a5ba 4cbd 3b92 2fbd c89e 68bd
00000060: 4a35 b2bd 6260 df3b 78bf 163d 483d 5abd
00000070: 30d9 133d 9168 843c 6078 913d 275a 2a3d
00000080: f185 3fbd 9895 2ebb b0ea a53c 244a a9bd
00000090: 38ad 203c 2599 253d a90e 8ebc f8e0 bfbd
000000a0: ff22 48bd 28e4 bfbd 990c b63d 17c4 9cbd
000000b0: e4e2 713d 560e 263d 6069 febc 7f27 6c3c
000000c0: e6b3 043d 75a7 993d ac2b e5bd 2913 9e3d
000000d0: 8664 703d 5e2d 21bd 934f 013c e825 173d
000000e0: 6da1 6bbd 0636 003d 3966 433d 1d49 51bd
000000f0: b613 a6bc aa6a 363d 24bd a2bc ce2b dfbd
00000100: 84d5 99bd 5778 753d 7220 1c3d d4f3 85bc
00000110: 8798 61bd 177c b239 0ded 6ebd 5839 e03d
00000120: 5bc9 9ebd e63c 3ebd 3657 3cbd fb39 413c
00000130: 9784 b8bd 07d7 b7bc b6eb 87bc ead5 fcbc
00000140: 466d 163d bb5b 0a3d c374 253d f66a 44bd
00000150: d584 8a3d 7961 2e3a 9ccf 47bc 3580 5f3d
00000160: 7f40 473d 8807 9cbc a33f 2fbd 9a78 e5bc
00000170: b4ef c63a 9b5f 813d f67a 653b ba17 e93c
00000180: 027a 4abd dc90 483d bbf4 60bd 51bf 34bd
00000190: ad80 1c3d b109 d7bb 039f 7b3d a0ba 3d3d
000001a0: a336 9bbc 3755 ddbd 259f 37bd cc7a 533d
000001b0: 0484 49bd e8be b4bc 3702 493d f3bc cb3d
000001c0: 2666 5dbd 0f10 db3c 5ff9 fa38 f73c c83c
000001d0: b571 0cbc 692e 1b3d 35ab 80bd 06a3 713d
000001e0: 76c7 3bbd e417 95bd 9260 9d3d 928c 403d
000001f0: 1e94 dfbc dea0 2e3d 87e7 0abd 9c35 323d
00000200: 386b 69bd 9b0f 8abd 086f 183d b92f 85bd
00000210: 4603 b4ba d033 70bd a010 043c 1909 183d
00000220: 5052 b63c c5b9 d2bc 0599 5e3d 90df 0c3b
00000230: 6e11 303d 8e17 e13c 5aac ea3c 90e4 3a3d
00000240: 021e f3bd bce4 1c3d 6b13 23bd 938e 7fbc
00000250: 41a1 8abc 9870 d93c aac7 cebc 5d09 07be
00000260: 635f d93c dc39 36bc dbf2 88bc c652 08bc
00000270: d250 94bd 6344 6f3d f94f 0bbd 0623 57bd
00000280: 2fd1 b739 f636 43bd 18bc 933d b9fd 22bd
00000290: 1c13 1a3d beac 3f3c 5209 c9bd 2505 e53c
000002a0: f1cc 823d 0248 3bbd 388d babd f49c a8bb
000002b0: 7f5d 57bc 4101 35bd 9f3c 27bb 3ac2 66bd
000002c0: 2ec0 dbbd 080c 0e3c 2a18 ddbc 70b4 aa3d
000002d0: e012 a6bc f15a 18bd ae2b b2bd 7243 8ebc
000002e0: e1c0 4fbd 99c7 e9bc d66b b3bd ba32 2bbc
000002f0: 0af5 61bb 51be 523d c387 13bc 2a4d 593d
00000300: 539b 003d b18b dfbc 7c8c d0bc 12ae cb3b
00000310: f07d 8f3d 390b 743d eb2a 6f3d ec84 aebc
00000320: 43e7 563d ff4a 86bc 336c 8d3a d582 613d
00000330: 48f5 c13c 9313 2bbb adbf 50bc df61 8ebd
00000340: 9d92 cabc 9a39 463d 81c1 5dbd decc b13c
00000350: 7a8b 963c d17c adbd ff02 b4bc ed93 a2bc
00000360: 94f3 353d 0ff6 bdbd 900b ecba 184a 283c
00000370: 5a4c f6bc 1661 62bd 0045 36bd 3101 803d
00000380: 5bc0 40bd 9fc5 93bd d3a8 5fbc ecf2 9b3c
00000390: 7dda c43d 2f43 eebc d3ae a9bd bbd1 fa3c
000003a0: f5b0 7dbd bffc 2c3c 3c5a 933d 24ea b7bc
000003b0: 7638 42bd dcec 69bc ff7b 79bd a28b 9e3d
000003c0: 7e58 c5bd 04b9 9cbd dd22 7abb 224f 0cbd
000003d0: 94de 323d 1eee 81bd 5c8b 90bd b1ba 70bd
000003e0: 43bb 833d cd02 8d3d e1f8 fbba a57e 683d
000003f0: 7ca8 c3bd 8716 c03d 799a bcbd 05b6 0cbe

fc2.bias f4 [64]
-0.0005200387 -0.04561052 -0.04850495 -0.01661803 -0.03284531 -0.046261054 -0.044881087 -0.053328093
-0.0051583024 -0.06844975 -0.0017540536 -0.062981084 -0.060426608 0.07063682 0.026054762 0.015496775
0.018163497 -0.0223127 -0.082737125 -0.06432773 -0.07757616 -0.10775493 -0.095715135 0.011732895
-0.07589162 -0.07694002 -0.012741118 -0.028021552 0.000439439 -0.0025294698 -0.040562127 -0.008446753
-0.059679627 0.07906371 -0.05540528 0.08959253 0.0039693415 -0.050587974 0.012787403 -0.007246169
0.004787395 -0.062416013 -0.038533952 -0.092935964 -0.033285767 -0.056323472 -0.011495654 0.021833878
-0.06845222 -0.04401523 0.03511728 0.047994502 -0.09274494 0.026916368 -0.06011592 -0.06080631
-0.037705548 0.00028581946 -0.0054504364 -0.0265014 -0.053538468 0.059439138 -0.09611424 -0.061307587
00000000: 3553 08ba 19d2 3abd 20ad 46bd 8922 88bc
00000010: ce88 06bd 3b7c 3dbd 3bd5 37bd 8f6e 5abd
00000020: fa06 a9bb 622f 8cbd 46e8 e5ba 3afc 80bd
00000030: e481 77bd 09aa 903d cc70 d53c 2fe6 7d3c
00000040: 9dcb 943c 20c9 b6bc 1572 a9bd 42be 83bd
00000050: 40e0 9ebd 9eae dcbd 4c06 c4bd 543b 403c
00000060: 116d 9bbd bb92 9dbd 1fc0 50bc 748d e5bc
00000070: 8164 e639 76c5 25bb 7924 26bd 4064 0abc
00000080: a072 74bd 28ec a13d a6f0 62bd 4a7c b73d
00000090: 4011 823b 5635 4fbd 4182 513c 4571 edbb
000000a0: 94df 9c3b efa7 7fbd c7d5 1dbd 3655 bebd
000000b0: a856 08bd 71b3 66bd 4458 3cbc f6dc b23c
000000c0: ad30 8cbd 5049 34bd 23d7 0f3d e295 443d
000000d0: 0ff1 bdbd b77f dc3c 1c3c 76bd 0a10 79bd
000000e0: 2271 1abd 0ada 9539 9399 b2bb 7719 d9bc
000000f0: 274b 5bbd 7476 733d 8bd7 c4bd aa1d 7bbd

fc3.weight f4 [32, 64]
0.10051213 0.099995285 -0.09440279 0.010330766 0.05402331 0.08144665 -0.00037671794 0.024821833
-0.0776589 -0.057194177 -0.02736945 -0.10340998 -0.13664246 0.038701907 -0.07282096 -0.06268493
0.12586667 0.08516873 -0.014766154 -0.0059687775 0.0517464 0.090846926 0.0784456 0.04527235
0.06743862 -0.07174758 -0.10630787 -0.11576747 -0.08469521 0.08211947 -0.06982089 -0.017025346
-0.014137362 -0.038824722 -0.06685734 0.04362704 0.011333976 -0.028313417 -0.09062073 -0.06987268
-0.049849197 0.07928625 -0.024711603 -0.044141125 0.051541254 0.068543896 0.0119217625 -0.08631097
0.07725531 -0.08475902 -0.10292744 -0.02731489 0.02097549 -0.08673038 0.017496224 0.09644962
0.038605507 -0.03212996 0.061746497 0.033906 0.03797724 0.0076819 -0.04019109 -0.11323809
0.08778657 -0.11654409 0.03077837 -0.10543787 -0.10841674 -0.051217645 0.11288896 0.012590436
-0.03886641 -0.054597706 0.009065728 -0.008876543 -0.053486593 -0.05119942 -0.09674096 0.010438498
0.03588554 -0.11636441 -0.027649226 -0.07350114 -0.059771925 0.05504445 -0.063137226 0.10152724
-0.047532015 0.032803684 0.045610353 -0.09629808 0.037100606 -0.07459828 0.0033150776 0.06671393
0.030912003 0.0216875 0.081861325 -0.1187369 0.07608769 -0.109355904 0.07179611 -0.16572024
0.053654682 -0.011057635 0.040476047 0.024999596 0.020203993 -0.13282253 0.02514363 0.0030077738
0.06656959 -0.06064191 0.02125414 0.074682675 0.014906944 0.10178446 -0.027830154 -0.12649985
-0.0566366 0.050952535 -0.0830827 -0.030972874 0.045141257 0.030225102 0.06780765 -0.073481426
-0.10749203 -0.01898972 -0.12694485 0.034519468 -0.12066462 -0.07451575 -0.052094877 -0.012869218
-0.086861916 0.004607303 0.081186935 -0.054773677 0.014038211 -0.020467326 -0.14392546 -0.10247929
0.010717981 -0.1440804 -0.06357368 -0.03804186 0.010153733 -0.0035578024 -0.10840863 -0.071015805
-0.0036490422 -0.027069204 -0.05500403 0.028118534 -0.0255791 0.10613523 -0.07787624 0.07842751
-0.121029414 0.012444749 0.011020847 -0.027410576 -0.123323135 -0.031820893 0.102391504 0.004731155
-0.11260285 -0.022629958 -0.054959435 -0.06849725 -0.0008611727 0.07023319 -0.04720678 0.03508815
0.057038177 -0.050818432 -0.026933065 0.080018945 -0.10583806 -0.038292516 0.033163592 -0.0244907
0.027233189 -0.026559103 0.0700005 0.05597334 -0.15248868 -0.114645116 -0.060921285 -0.04284002
0.022584079 0.10964511 -0.13065496 0.031199215 -0.011579161 0.06394807 -0.07667207 0.09240303
0.02453258 -0.120312996 -0.10588264 0.053284977 0.089035064 -0.031211864 -0.112430274 0.046739906
0.1337286 -0.0061538443 0.107075036 -0.024656694 -0.09025132 -0.1211199 -0.10636897 -0.13376045
-0.049381662 -0.11388192 0.06379587 -0.108809575 0.0073731667 -0.024930373 0.009828017 -0.016448453
-0.054050628 -0.055691887 0.07691774 0.13186805 -0.09692506 0.027398078 0.04245649 -0.0121442415
0.030765891 0.10219712 0.0533351 -0.053224534 -0.09859493 -0.064819925 -0.00222655 0.085840784
-0.066188276 -0.053165346 -0.14040032 0.052656125 0.0025703372 -0.031459875 0.1013301 0.10684313
0.077046454 -0.043490123 -0.093574494 -0.040110808 -0.08766107 0.01883343 0.09396664 -0.115282744
00000000: 4ed9 cd3d 54ca cc3d 4056 c1bd 6042 293c
00000010: 8c47 5d3d 80cd a63d 3a82 c5b9 2857 cb3c
00000020: a10b 9fbd 7144 6abd e635 e0bc 9dc8 d3bd
00000030: 00ec 0bbe e485 1e3d 2823 95bd f560 80bd
00000040: 31e3 003e f16c ae3d bded 71bc bc95 c3bb
00000050: 08f4 533d f40d ba3d 16a8 a03d 806f 393d
00000060: 421d 8a3d 65f0 92bd f1b7 d9bd 7f17 edbd
00000070: af74 adbd 412e a83d 41fe 8ebd bd78 8bbc
00000080: 65a0 67bc ac06 1fbd 80ec 88bd 44b2 323d
00000090: 24b2 393c 8af1 e7bc 5c97 b9bd 6819 8fbd
000000a0: ac2e 4cbd d460 a23d fd6f cabc 53cd 34bd
000000b0: ec1c 533d be60 8c3d 7f53 433c cec3 b0bd
000000c0: 0838 9e3d 2396 adbd 9fcb d2bd 7ac3 dfbc
000000d0: cad4 ab3c b39f b1bd 3e54 8f3c 6187 c53d
000000e0: cf20 1e3d b49a 03bd e5e9 7c3d 05e1 0a3d
000000f0: 068e 1b3d 73b8 fb3b 6a9f 24bd 5fe9 e7bd
00000100: 72c9 b33d abae eebd ec22 fc3c cfef d7bd
00000110: 9909 debd 98c9 51bd 5432 e73d 1e48 4e3c
00000120: 6232 1fbd d8a1 5fbd 6b88 143c eb6e 11bc
00000130: c214 5bbd 7cb6 51bd 2020 c6bd 3c06 2b3c
00000140: b7fc 123d 7750 eebd a180 e2bc c487 96bd
00000150: 68d3 74bd 4a76 613d 174e 81bd 83ed cf3d
00000160: eeb0 42bd 285d 063d ecd1 3a3d ee37 c5bd
00000170: cef6 173d fcc6 98bd c641 593b 50a1 883d
00000180: 2b3b fd3c fca9 b13c e9a6 a73d 552c f3bd
00000190: ddd3 9b3d fdf5 dfbd d709 933d 91b2 29be
000001a0: 03c5 5b3d 152b 35bc 36ca 253d f4cb cc3c
000001b0: d882 a53c a102 08be 04fa cd3c 121e 453b
000001c0: a355 883d a763 78bd 2a1d ae3c 3bf3 983d
000001d0: 413c 743c 5f74 d03d 10fc e3bc 2d89 01be
000001e0: c8fb 67bd 9bb3 503d 4327 aabd d3ba fdbc
000001f0: 0ae6 383d a29a f73c bdde 8a3d 6e7d 96bd
00000200: c824 dcbd 5490 9bbc d5fd 01be 4964 0d3d
00000210: 031f f7bd b79b 98bd 7061 55bd 6ad9 52bc
00000220: a9e4 b1bd dcf8 963b 5645 a63d 5d5a 60bd
00000230: 8600 663c 18ab a7bc 3261 13be a9e0 d1bd
00000240: 789a 2f3c d089 13be eb32 82bd c8d1 1bbd
00000250: d85b 263c 052a 69bb 5805 debd bc70 91bd
00000260: c524 6fbb 3cc0 ddbc e84b 61bd d758 e63c
00000270: 438b d1bc 6d5d d93d 947d 9fbd 9a9e a03d
00000280: 45de f7bd 0fe5 4b3c c890 343c 258c e0bc
00000290: d790 fcbd a056 02bd a3b2 d13d ce07 9b3b
000002a0: 539c e6bd 7662 b9bc 251d 61bd 4948 8cbd
000002b0: 52c0 61ba 6bd6 8f3d e65b 41bd 98b8 0f3d
000002c0: dda0 693d fd26 50bd bba2 dcbc f9e0 a33d
000002d0: a0c1 d8bd 9dd8 1cbd 8cd6 073d b8a0 c8bc
000002e0: 2318 df3c 7a92 d9bc 6c5c 8f3d 4d44 653d
000002f0: fe25 1cbe 0fcb eabd 9988 79bd 0479 2fbd
00000300: 3f02 b93c 9e8d e03d 6aca 05be 7f95 ff3c
00000310: 85b6 3dbc 35f7 823d 3f06 9dbd cd3d bd3d
00000320: 8df8 c83c a966 f6bd ffd8 d8bd 5941 5a3d
00000330: 0458 b63d 06b0 ffbc d841 e6bd 5872 3f3d
00000340: 26f0 083e 30a6 c9bb 284a db3d d6fc c9bc
00000350: afd5 b8bd b60d f8bd f9d7 d9bd 80f8 08be
00000360: 6d44 4abd ed3a e9bd 69a7 823d 8ed7 debd
00000370: 9b9a f13b c83a ccbc b105 213c e8be 86bc
00000380: 3164 5dbd 2d1d 64bd 0c87 9d3d 6b08 073e
00000390: a580 c6bd ef71 e03c dbe6 2d3d a4f8 46bc
000003a0: c008 fc3c b94c d13d e875 5a3d f801 5abd
000003b0: 23ec c9bd 4fc0 84bd 4feb 11bb 4bcd af3d
000003c0: b88d 87bd e8c3 59bd 1ac5 0fbe f3ad 573d
000003d0: 1a73 283b 12dc 00bd 2886 cf3d 92d0 da3d
000003e0: 88ca 9d3d b322 32bd fca3 bfbd 3b4b 24bd
000003f0: a687 b3bd 9148 9a3c 9571 c03d 5c19 ecbd

fc3.bias f4 [32]
0.017092904 -0.12642734 0.104387864 -0.004019863 -0.06852686 0.050469153 0.06054465 0.038143065
-0.063741624 -0.10854046 0.04515238 0.024991099 -0.13323265 0.06123108 0.08928419 0.065971404
-0.06990101 0.0451718 -0.033716176 0.017256193 -0.042726915 -0.046226 -0.061568514 0.0368959
-0.05238354 0.026629927 0.08246187 0.049007934 -0.07228322 0.0839127 0.08106552 -0.022059947
00000000: 6b06 8c3c 2b76 01be 4ec9 d53d 0eb9 83bb
00000010: cf57 8cbd beb8 4e3d abfd 773d e73b 1c3d
00000020: f88a 82bd 764a debd b4f1 383d 22ba cc3c
00000030: 246e 08be 71cd 7a3d a1da b63d 041c 873d
00000040: 4328 8fbd 1106 393d f919 0abd dc5c 8d3c
00000050: 6b02 2fbd 7957 3dbd 442f 7cbd 2820 173d
00000060: 1f90 56bd 0127 da3c c5e1 a83d 8bbc 483d
00000070: 3a09 94bd 6cda ab3d ae05 a63d 10b7 b4bc

fc4.weight f4 [1, 32]
-0.04369958 0.027249876 0.034010738 -0.030863656 0.061114777 -0.0013961012 0.04512683 0.011135561
0.06010209 0.01956766 -0.069376245 0.120800026 0.120820716 0.042345658 0.04898392 0.065797776
-0.027134957 0.092225984 -0.08556699 -0.07029793 -0.00992544 -0.074884765 0.04207023 -0.025662206
0.028400341 0.10860197 -0.044557944 0.117911994 0.037735563 -0.103278205 -0.037167028 -0.047644854
00000000: 55fe 32bd 223b df3c d84e 0b3d c7d5 fcbc
00000010: 7d53 7a3d 62fd b6ba e9d6 383d ee71 363c
00000020: 9c2d 763d 5b4c a03c 2215 8ebd 0166 f73d
00000030: da70 f73d a472 2d3d 5da3 483d fcc0 863d
00000040: 214a debc fae0 bc3d bf3d afbd 5cf8 8fbd
00000050: 509e 22bc 2f5d 99bd d551 2c3d 8c39 d2bc
00000060: d5a7 e83c b66a de3d 6482 36bd d87b f13d
00000070: 9b90 1a3d 8683 d3bd 743c 18bd 4027 43bd
